agent.pth (torch, 37900 bytes, 2 tensors)

weight f4 [21, 433]
000000 46 79 9f 3c 81 c5 b8 bc 65 2a 39 3d 4a e2 a3 3c
       0.019467007 -0.022555115 0.045206446 0.020005364
000010 76 0e ba 3c bc 75 05 bd ca 11 98 3c 62 16 b1 3c
       0.022711974 -0.032582983 0.01856317 0.021617118
000020 5e 10 93 bc 77 5c 92 bc 54 c0 18 bd 00 7c ab 3a
       -0.01795214 -0.017866356 -0.037292793 0.001308322
000030 91 2a 24 3d 73 92 13 3d ce c7 94 3c 2a f5 a9 bc
       0.040079657 0.036028337 0.01816168 -0.020746786
000040 d1 fe 06 bd 54 73 2c 3c 3a 3c eb 3c ec ab 35 bd
       -0.032957856 0.010525543 0.028715242 -0.04435341
000050 80 43 9b 3a 84 31 28 3c 0f b2 3c 3d b8 3e 18 bc
       0.0011845678 0.010265712 0.046068247 -0.009292297
000060 48 86 03 3c 42 d2 c7 3c 95 6d ec bc d2 22 2e bd
       0.008027621 0.02439225 -0.028860847 -0.042513676
000070 6b e2 2d 3d 88 65 02 bd 14 a2 6a 3c 1b 04 1e bd
       0.042452257 -0.03183511 0.014320869 -0.038578134
000080 bc ac b0 bc 74 2c 05 bd 7f f2 c7 bc 61 74 8a bc
       -0.021566741 -0.032513097 -0.024407623 -0.016901197
000090 93 36 1f 3d be 15 a2 3c cc c3 36 3c 98 18 eb bb
       0.038870405 0.019785758 0.01115508 -0.0071745627
0000a0 0c 61 73 bc 18 e5 5e bc 90 af 24 3b 81 9a 2f 3d
       -0.014854681 -0.013604425 0.0025129057 0.042871956
0000b0 42 63 c5 3c 60 2c 38 bc 2d 8d 2e bd 89 13 31 3d
       0.024095181 -0.011241049 -0.042615104 0.04323152
0000c0 4e 54 26 bd 70 fe 12 bd 70 8d 1f bb f8 b9 d8 bc
       -0.040607743 -0.03588718 -0.0024345778 -0.026455864
0000d0 60 71 6a 3b 1e 22 a0 3c 01 11 0a 3d 7e e0 c1 bc
       0.0035773143 0.019547518 0.033707622 -0.023666617
0000e0 d7 73 36 3d 30 da 59 bc e1 1e a7 bc f8 29 b7 3b
       0.044544067 -0.013296649 -0.020400466 0.00558972
0000f0 73 f2 26 3d eb fe 39 bd 71 a4 02 3d 89 f8 3c 3d
       0.04075856 -0.045409124 0.031895105 0.04613546
000100 ca 57 eb 3c 79 d9 31 3d 0e af 0d bd 9a 2e de 3c
       0.028728385 0.04342029 -0.034590773 0.02712183
000110 ca 48 ae bc 1f 34 34 bd e0 bd cf 3b 53 f6 13 bd
       -0.021274943 -0.04399502 0.0063397735 -0.036123585
000120 38 99 b0 3b 86 cb 94 bc 7e 61 ab 3c 00 59 06 bc
       0.005389359 -0.018163454 0.020920511 -0.00819993
000130 c2 e7 1b bd 2e 5e d3 3c 30 93 a3 bb b8 ab 16 3c
       -0.03806282 0.025801744 -0.0049919114 0.009196214
000140 a4 aa 6e 3c 5a e0 fe bc 8e 97 29 bd 70 ca 15 bc
       0.014567051 -0.031112839 -0.0414043 -0.009142503
000150 ec 1e 9e bc 27 e9 2b 3d a2 84 b4 3c 3e 9a 98 3c
       -0.019301854 0.0419704 0.0220359 0.018628236
000160 30 37 91 bc 0a 9c 31 bd bb a7 b9 bc 48 b0 f1 bc
       -0.01772651 -0.0433617 -0.022662988 -0.029503003
000170 90 5d 50 bc 0e e2 b2 3c 08 e3 31 3c 81 76 15 3d
       -0.01271762 0.021836307 0.010857351 0.036489967
000180 44 d5 10 bd 4e f6 04 bd 93 4b 06 3d 04 e7 42 bd
       -0.035359636 -0.032461457 0.032786917 -0.047583595
000190 da 7c fd 3c 15 11 3a 3d 34 53 0f bd 9f 82 0a bd
       0.030943323 0.045426447 -0.034991458 -0.033815976
0001a0 8f b5 08 bd 80 50 83 bb 43 ab 09 3d 18 60 05 3c
       -0.033376273 -0.004007399 0.033610594 0.008140586
0001b0 4f ea 3f bd 1d 81 10 3d 61 47 3d 3d 71 7d 0c 3d
       -0.046854313 0.035279382 0.04621065 0.034299318
0001c0 b0 7a 9a 3b 1e 07 04 bd e4 7e 1d bd e5 17 23 3d
       0.0047143325 -0.03223335 -0.03845109 0.03981771
0001d0 a0 91 cc 3b bb 7f 1d bd 90 08 02 3c 3f bb 31 3d
       0.006242946 -0.03845189 0.007936612 0.043391462
0001e0 20 f4 83 bb 74 06 eb bc 96 73 f1 bc 12 a2 15 bd
       -0.0040269047 -0.0286896 -0.029474061 -0.036531515
0001f0 02 ba d7 3c cb 9c 05 3d 08 a4 1a 3c 00 f1 09 bd
       0.026333813 0.032620233 0.009438522 -0.0336771
000200 7c b6 dd bc 18 01 28 bd 1f 62 eb bc 1a c3 02 bd
       -0.027064554 -0.041016668 -0.028733311 -0.031924345
000210 9e 85 d5 3c 76 6c 28 bd 74 eb 36 bc 73 07 42 3d
       0.02606469 -0.04111906 -0.011164535 0.047370385
000220 1c 94 3c bd 72 b0 cb 3c 0b c0 df bc 78 ac 32 bc
       -0.046039686 0.02486441 -0.027313253 -0.010905378
000230 80 f0 14 bd aa a6 11 bd 2c 17 9b bc e9 3c 3c 3d
       -0.03636217 -0.035559334 -0.018931948 0.045956526
000240 ca a8 3e bd ec da 0d bc f8 f4 1b bd 39 0b 13 3d
       -0.04654769 -0.008658152 -0.038075417 0.035899375
000250 0e 9e 2e bd cd a1 11 3d f8 2f 90 3b dc 72 0c bd
       -0.0426312 0.035554696 0.0044002496 -0.034289226
000260 51 d0 04 bd 3e cb c5 3c 06 43 d6 3c 66 f1 b5 3c
       -0.03242523 0.024144765 0.026155006 0.022209834
000270 64 14 1e 3c 7e 01 9c 3c ac 5c 0c bd f2 47 90 3c
       0.009648416 0.01904368 -0.034268066 0.017612431
000280 c4 da 59 3c 42 dc ea 3c 13 0c 12 3d 8c f2 7c 3c
       0.013296787 0.02866948 0.035656046 0.015438687
000290 a2 bc cd bc 2e 6c 9c 3c 33 04 36 3d 5c f2 15 3c
       -0.025114361 0.019094553 0.0444376 0.009152021
0002a0 44 48 66 3c ae c1 8c 3c 2a eb 1c bd a0 93 36 bc
       0.014055315 0.017182197 -0.038310207 -0.011143595
0002b0 fa ad 21 bd 1a d1 d9 3c 68 72 9a bb 53 19 ba bc
       -0.039472558 0.026588965 -0.0047133453 -0.022717154
0002c0 42 79 b4 3c 44 83 27 bc f0 55 33 3c c0 0a 49 3b
       0.022030476 -0.010224167 0.010945782 0.0030676574
0002d0 63 e2 1b 3d b8 ca 2f bc 00 18 3c ba c2 79 01 bd
       0.038057696 -0.010729484 -0.0007175207 -0.031610258
0002e0 dc c6 76 bc b8 7e 8e 3b 0e ee 93 3c fb 11 2d 3d
       -0.01506206 0.004348602 0.01805785 0.042253476
0002f0 20 c4 dd ba 9b 6d ba bc a0 b0 07 bb 87 b6 d0 bc
       -0.0016919412 -0.022757342 -0.0020704642 -0.02547766
000300 de 12 cf 3c 50 db 08 bc fc ab 85 bc 3e 1f 1c bd
       0.025277551 -0.008353069 -0.01631736 -0.038115732
000310 94 97 75 3c e4 1d 44 3c 41 ad de bc e5 c9 9c bc
       0.014989752 0.011970017 -0.027182223 -0.01913924
000320 42 f5 e8 3c e3 22 3d 3d ec a9 3e bc 62 db 25 bd
       0.02843726 0.04617585 -0.011637192 -0.040492423
000330 80 39 99 3b 9c 8b 4e 3c a0 03 06 bc 2e 50 b5 3c
       0.004676044 0.012606528 -0.008179575 0.02213296
000340 c2 ae b5 3c 74 30 da bc 17 30 35 bd 80 9c 95 bc
       0.022178058 -0.026634432 -0.044235315 -0.018263102
000350 1a 8a b6 3c 5c c2 16 bd a0 31 c4 3a 44 11 36 bc
       0.022282649 -0.03680645 0.0014968403 -0.011112515
000360 b8 8d 2f 3c fa 38 dc 3c 7b 52 a3 bc 6e 65 81 3c
       0.010714941 0.026882637 -0.01993679 0.015795436
000370 48 82 22 3c fc 4b 38 bd bf 60 8c bc a1 3e cc bc
       0.009918757 -0.04499434 -0.017135976 -0.024932208
000380 40 21 70 bc f4 35 1b bd 78 1b 43 bc 8f a3 31 3d
       -0.014656365 -0.03789325 -0.0119084045 0.043368872
000390 d0 31 4d bb 9e 98 cb 3c 9f 81 0d 3d 8e a1 b4 3c
       -0.0031310208 0.024853047 0.034547444 0.022049692
0003a0 10 7f 21 3b ae 33 1d bd 44 35 3b bc 1e 06 a7 3c
       0.0024642386 -0.038379364 -0.011426274 0.02038866
0003b0 6c c1 92 bc 80 41 66 bb 1d 11 43 3d 5b 23 d0 bc
       -0.017914496 -0.0035134256 0.047623742 -0.025407484
0003c0 6c 6b 25 bd 60 34 3a bc eb 76 d8 bc 37 2e 3a 3d
       -0.04038565 -0.011365026 -0.026423892 0.04545423
0003d0 df 7f 01 bd 60 14 9d bb 34 5c 20 3c b0 c8 36 bd
       -0.031616088 -0.0047936887 0.009787608 -0.044624984
0003e0 7a a0 f7 bc 67 a1 20 3d 65 99 3b 3d 52 18 b7 3c
       -0.030227888 0.039216425 0.045800585 0.022350464
0003f0 8c 4d 40 3c 10 6b 74 bc 40 8a 27 3a 7d 7c 05 bd
       0.011737239 -0.014918104 0.0006391145 -0.032589424

bias f4 [21]
000000 5b 17 14 3d 50 7a 40 3b 33 1d 32 3d f1 54 a6 bc
       0.036155086 0.002936978 0.043484878 -0.020304175
000010 a2 14 0f bd 15 a6 0e 3d 5e 67 a3 3c 83 9b 27 3d
       -0.034931786 0.034826357 0.01994675 0.040919792
000020 48 45 62 bc 72 5c f2 3c 20 b6 ac ba 61 98 1b 3d
       -0.013810463 0.029585097 -0.0013176836 0.037987117
000030 c7 5c 00 3d c7 34 ad bc 8a bb ea 3c 2d 3c 3f bd
       0.03133848 -0.02114333 0.028653879 -0.046688247
000040 7d 87 44 3d ce 3d c6 bc 9b 21 f8 bc c9 a1 3b 3d
       0.047980774 -0.024199393 -0.030289462 0.045808587
000050 e8 bf fb bc
       -0.030731156
