agent.pth (torch, 37900 bytes, 2 tensors)

weight f4 [21, 433]
000000 87 5f 3c 3d e9 08 25 3d c8 9c 2b 3c 3d a8 33 bd
       0.04598954 0.0402917 0.010474391 -0.043861616
000010 94 6e 27 3c 91 54 21 bd d7 5b 1c bd 3a b9 8a 3c
       0.010219235 -0.03938729 -0.038173523 0.016934026
000020 80 08 3a 3b be 68 99 3c 11 9c 0c bd cd 48 f3 bc
       0.0028386414 0.018726703 -0.034328524 -0.0296978
000030 fc 86 f5 bc f0 85 cd 3b 46 de fc 3c c0 ec f1 ba
       -0.029971592 0.00627207 0.030867707 -0.0018457398
000040 84 32 35 3c f4 45 70 3c 86 fa b7 bc f9 1c 2d 3d
       0.011059407 0.014665116 -0.022458326 0.04226396
000050 d1 5f 0b 3d e0 2c 40 bd e5 fa 24 3d c5 6c b1 bc
       0.034026925 -0.046917796 0.040278334 -0.02165831
000060 a8 5f ac 3b c5 f3 28 3d ce 41 d3 3c 20 3b 11 3c
       0.0052604266 0.0412481 0.025788214 0.008864194
000070 4a 24 d6 3c 80 18 29 3a bd 68 32 bd 4f 14 3a bd
       0.02614035 0.0006450489 -0.043556917 -0.045429524
000080 60 df d5 bb d5 c3 0c 3d 7a 10 11 bd 88 84 c3 bb
       -0.0065268725 0.034366447 -0.035416104 -0.0059667267
000090 56 00 f3 3c 4a f9 86 3c 54 03 83 bc fe 5d d3 bc
       0.029663246 0.016476292 -0.015992798 -0.025801655
0000a0 7c c4 49 bc 99 3c 26 3d 00 d5 27 39 4a 5e 9f 3c
       -0.012314912 0.040585134 0.0001600571 0.01945414
0000b0 23 7d 1a 3d 18 6b 0d bc 01 0e f3 bc f0 87 24 bd
       0.037716996 -0.00863149 -0.029669764 -0.040168703
0000c0 aa c3 11 bd 4e bf b4 bc 04 51 72 3c 22 0a 80 3c
       -0.03558699 -0.022063877 0.014789823 0.015629832
0000d0 00 cb f1 3a 5e 90 ef 3c 11 a2 40 3d f5 cc 21 bd
       0.001844734 0.029243644 0.04702956 -0.039502103
0000e0 66 bc 3e bd 04 ee 0c 3c f2 0f 95 3c 08 80 61 3c
       -0.04656639 0.008601669 0.01819608 0.013763435
0000f0 dc 96 7f 3c f6 09 bb 3c 23 87 0d bd 1c 95 03 bd
       0.0155999325 0.022831898 -0.034552705 -0.032124624
000100 9a 99 d4 3c 00 5f 8b bb ee 71 95 3c a4 d6 18 bd
       0.02595215 -0.0042532682 0.018242802 -0.037314072
000110 38 c3 33 3c 65 89 09 bd bb 32 04 3d 40 2a bc bb
       0.010971837 -0.033578295 0.032274943 -0.0057423413
000120 58 d4 e7 bc 31 c5 f9 bc 8e d2 92 bc 5c 9a 2b 3c
       -0.028299496 -0.030489536 -0.017922666 0.010473814
000130 95 1c 3e 3d e6 b8 c1 3c 7e 4c 29 bd 55 c6 fc bc
       0.046413977 0.023647737 -0.041332714 -0.03085629
000140 2a c7 99 3c 9b f7 b3 bc 77 0a 2e 3d 3d 38 0b 3d
       0.018771727 -0.021968653 0.04249045 0.03398918
000150 90 bc 1c bb c4 56 ec bc 0f 85 33 3d 68 35 e8 bb
       -0.0023916103 -0.028849967 0.043828066 -0.0070864446
000160 4e 1f 87 3c 42 6c 8a 3c 5d b3 c7 bc 3a 8b 8b 3c
       0.01649442 0.016897324 -0.02437752 0.017034162
000170 18 b9 22 3c 86 e4 a8 3c 5b 42 43 3d 35 65 a9 bc
       0.009931825 0.020616781 0.047670703 -0.020678142
000180 fc fe 0a bc 90 63 34 3c 83 cc 07 bd 44 0b 9f bc
       -0.008483645 0.011010066 -0.033154022 -0.019414552
000190 62 72 be 3c 2e 9e a3 3c 0c 20 38 bc ce 13 95 3c
       0.023247901 0.019972887 -0.011238109 0.01819792
0001a0 28 1f 23 bd 8b d8 ff bc 6a b7 c6 3c 00 14 b6 38
       -0.039824635 -0.031231185 0.02425738 8.6821616e-05
0001b0 76 68 82 3c ec 51 48 bc 4b 27 f4 bc 54 3b 70 3c
       0.015918951 -0.012226563 -0.029803893 0.014662582
0001c0 c3 ee 1b bd aa 1b b6 3c b5 fe f6 bc d8 ee cd 3b
       -0.038069498 0.022229988 -0.03015075 0.006284576
0001d0 c2 b6 e8 3c 5d 0b 20 3d 00 ee bc 39 f8 9f ec bb
       0.028407458 0.039073337 0.00036035478 -0.007221218
0001e0 fb 91 21 3d 6b d1 03 3d 80 c9 1a ba 4b 81 05 bd
       0.03944586 0.03218214 -0.00059046596 -0.032594007
0001f0 24 2c 11 bc 30 37 3d 3b 1d bb e5 bc 6f 2f c9 bc
       -0.008860622 0.0028872006 -0.028043324 -0.02455875
000200 ea 23 da 3c a8 ad 42 bc 00 13 f6 3a d8 45 af bb
       0.026628453 -0.011882223 0.0018773973 -0.005348902
000210 02 90 af 3c 06 05 0d bd 86 71 36 bd 8d a8 92 bc
       0.021430973 -0.03442862 -0.044541858 -0.017902637
000220 1c 2c 3a 3c b2 48 8b 3c e2 db c4 3c 29 c8 05 3d
       0.011363056 0.017002437 0.02403063 0.03266159
000230 4f ae 38 3d 2e 69 8c 3c 88 ba 02 bc c6 f5 b3 3c
       0.04508811 0.017139997 -0.007979043 0.02196778
000240 a2 15 b8 3c 1a 2e bd 3c 64 a5 69 bc 26 19 1d bd
       0.022471253 0.023093272 -0.014260624 -0.03835406
000250 71 61 37 3d 6c 80 5a 3c 2a 5c c8 3c 6c df 1f 3c
       0.04477066 0.013336282 0.02445801 0.009757858
000260 48 1f 07 bd 25 8c cf bc 72 32 a3 3c 6e 48 db 3c
       -0.032988816 -0.02533538 0.019921515 0.026767936
000270 56 bd ea 3c 62 79 82 bc 87 13 1a bd af cc 12 3d
       0.028654736 -0.01592702 -0.03761628 0.035839733
000280 b8 aa b3 bb 64 4d b1 bc 58 cc a2 bc a0 c7 84 3b
       -0.0054829977 -0.021643348 -0.01987283 0.0040521175
000290 89 b2 2e bd fe 61 89 3c b0 58 ee 3b 83 b5 07 bd
       -0.042650733 0.01677036 0.007273756 -0.033132087
0002a0 b6 81 90 bc c4 26 5d bc 07 bf 3a bd d2 98 e6 3c
       -0.017639976 -0.013498012 -0.045592334 0.028149042
0002b0 ff bf ce bc dd 9c 39 3d 2a 85 24 bd 7f a0 ae bc
       -0.025238035 0.045315612 -0.040166058 -0.021316765
0002c0 a9 e4 20 bd a8 cc 31 bd 40 fd 37 ba 4a 2e cd 3c
       -0.039280567 -0.043408066 -0.0007018633 0.025046486
0002d0 bd 23 f4 bc 8a 06 9d 3c 38 fa 41 3c 6f 80 0d 3d
       -0.029802198 0.019168157 0.011839442 0.034546312
0002e0 6a c2 ba bc 34 dd 40 bd b4 71 70 bc 41 14 2a bd
       -0.022797782 -0.047085956 -0.014675546 -0.041523222
0002f0 f8 97 bb bc 0c 17 0d bd 71 9d d1 bc 30 97 0e bc
       -0.022899613 -0.034445807 -0.02558777 -0.008703038
000300 02 5e d6 3c 88 52 2f bd 1f 03 14 bd 88 e7 5f bc
       0.026167873 -0.042803317 -0.03613579 -0.013666041
000310 a5 80 40 3d 60 20 59 bb 10 10 23 bd e3 8b 37 3d
       0.046997685 -0.003313087 -0.03981024 0.04481114
000320 20 90 2a 3c 89 ec 07 bd 38 d8 df bc 7d a9 a1 bc
       0.010410339 -0.033184562 -0.02732478 -0.019734139
000330 e1 0c 31 bd 81 ee 9d bc 99 43 e5 bc 7b 9a fc bc
       -0.043225173 -0.019278767 -0.027986335 -0.03083538
000340 c0 09 31 bb b7 30 15 3d 1b c5 dd bc 40 a8 c0 3b
       -0.0027013868 0.03642341 -0.027071526 0.005879432
000350 77 8a 09 3d 54 bc 33 bd 54 65 2e 3c b4 78 1a 3c
       0.033579316 -0.043880776 0.010644276 0.009428192
000360 83 c3 16 3d 68 7c 5d 3c a8 ec 9c bb bf 0a 44 bd
       0.03680755 0.01351843 -0.004788954 -0.04786181
000370 14 6f 07 3c a0 18 e7 bb 68 ae 3d bd 1e 59 10 bd
       0.008266229 -0.007052496 -0.046308905 -0.03524124
000380 da bd b3 3c 1b ff 3e 3d 41 46 0c 3d 00 f3 af 3b
       0.021941114 0.046630006 0.034246687 0.005369544
000390 c7 ab 07 3d 16 bc 25 bd dd ac 33 3d 6d 48 d4 bc
       0.033122804 -0.040462576 0.043866027 -0.025913442
0003a0 b0 f3 14 3c b1 7d 08 3d 81 4a a4 bc da 5d 8e 3c
       0.009091303 0.033322994 -0.020055057 0.017378736
0003b0 70 02 62 3b 84 a5 7c bc 36 2c e8 3c 72 8c e9 3c
       0.0034486316 -0.015420321 0.028341394 0.028509352
0003c0 2a a8 29 bd 60 bb 02 3c 0e 33 06 bd 50 3c 8b 3b
       -0.04142014 0.007979244 -0.032763533 0.004249133
0003d0 fe 0c bf 3c ec 3d ed bc 7b dc 3c 3d 14 98 4b bc
       0.023321625 -0.02896019 0.046108704 -0.012426395
0003e0 fa 1f 9c 3c 23 16 0f bd 6f 81 32 bd c8 af 34 3c
       0.019058216 -0.03493322 -0.04358047 0.011028238
0003f0 2f 7b 38 3d a9 97 38 3d 43 ad 08 bd ff 4b 31 bd
       0.045039352 0.04506651 -0.03336836 -0.043285366

bias f4 [21]
000000 8e c5 c0 3c 18 dd 0e bd f3 4a 01 bd 0b 8b 37 bd
       0.023531701 -0.03487882 -0.031565618 -0.044810336
000010 f3 02 09 bd ca 24 c0 3c 4d 8a 91 bc 81 ee 0b bd
       -0.03345008 0.023455042 -0.017766142 -0.034163002
000020 05 b2 43 bd ae e6 a6 3c 1c a3 4f 3c 10 ea de bb
       -0.047777195 0.020373669 0.012673166 -0.006802805
000030 6a 7d e2 3c 40 38 3d ba c0 8e 51 bb c6 20 fa 3c
       0.027647693 -0.000721816 -0.0031975955 0.030533206
000040 bb 38 09 bd 4c 4f 00 3c 5e 71 9c 3c 28 80 5b bc
       -0.033501368 0.007831406 0.019097026 -0.013397254
000050 c8 7a 31 bc
       -0.010832496
