simple_agent.pth (torch, 37942 bytes, 2 tensors)

weight f4 [21, 433]
00000000: 6fe2 dabc c8ef 66bc 2eee a63c 1407 dbbc
00000010: 2228 cd3c 8c95 6dbc 0a38 e73c cc94 1abc
00000020: 3a35 a83c c33a 3abd 4061 22ba bc93 67bc
00000030: aada bc3c ca57 903c 16ea df3c 70fa 5fbb
00000040: f7c0 383d c828 d33b ee38 0cbd d64e c43c
00000050: 381a 45bc abb3 263d 8c79 07bd 4a40 c03c
00000060: c6cc d8bc 305f 78bb 06a0 bd3c 24f4 10bc
00000070: 8a86 be3c 96d9 c53c 6a97 cd3c 9a53 3fbd
00000080: 64b2 24bc 96ea 8e3c 2111 073d 2e98 9fbc
00000090: cba2 1e3d 169a d8bc 53ab fcbc 54a3 5dbc
000000a0: b1fa 1e3d be08 41bd 1c30 08bd 5cdd 343c
000000b0: 3669 f9bc 11a5 25bd 9945 31bd 0092 bdba
000000c0: c8e4 37bd f0a3 2abc 6a30 fb3c 04ea b7bc
000000d0: 123d fcbc 2ab0 8a3c bd05 413d e826 13bd
000000e0: 6adc dd3c 270a 43bd e0c5 ddbb 552c 22bd
000000f0: f8c5 22bd daac b93c cd71 1fbd 3049 a03b
00000100: abb6 c7bc 94bb 003c 08e2 a53b 20af b73b
00000110: 0d27 a4bc 669e d5bc dad5 f23c c2b0 d5bc
00000120: 780b 663c 80c2 18ba 3c91 1ebc e34c 393d
00000130: c0f8 c4ba 7a72 cb3c 38b4 c4bb dedf d93c
00000140: 1fed 333d a75c 3c3d 9cb1 a2bc 4e5e e73c
00000150: 81a5 3a3d a82f 583c 5f11 8bbc 833d 1e3d
00000160: 806c 06ba 967c f0bc 56d1 823c 68d9 f2bc
00000170: f6e5 0abd 23bd 15bd 5872 0d3c f303 143d
00000180: 3bec 213d 580c e53b b3ce 2b3d 1516 3e3d
00000190: 80d2 8eba 9cfc acbc 37d6 0ebd b31e 44bd
000001a0: 010c 283d c863 813b f0f8 1cbd 9444 283c
000001b0: df16 153d 0107 40bd 15fa d2bc 2a63 cebc
000001c0: d61c f33c 8268 88bc 3e6f d13c b2b3 ab3c
000001d0: 83d8 40bd 55aa 0fbd 6e0b 10bd e498 2cbd
000001e0: 5a0b bd3c 1283 b63c 1f66 003d a4d3 6ebc
000001f0: 40a2 9e3a 8b83 aabc 1c5f 1cbd d1d6 2dbd
00000200: 1654 89bc 4d3a 093d 47c7 d0bc 7a82 8f3c
00000210: 0a65 e43c a0ed 90bc 3e8b 32bd 6bb3 34bd
00000220: 8214 11bd f60b c1bc 907b 04bd 3022 1c3b
00000230: 9b38 e4bc 1e8e 9f3c 25d5 99bc fad1 e03c
00000240: a6e8 df3c e435 4dbc dc58 1f3c f7ac 003d
00000250: f046 2d3b d0ef 64bc f909 29bd 40bb 073b
00000260: a05f 843a c0d6 2dbb 4241 ed3c 4f41 173d
00000270: 16f9 0cbd d6ac b73c 9cab 4fbc 1155 f3bc
00000280: b54a 423d a006 c8ba 1fee ecbc 893b 09bd
00000290: f0c1 273c 0266 ea3c 146e 6fbc bad7 2abd
000002a0: 62c9 06bd c523 c4bc 7e7e e33c 6b5e 11bd
000002b0: 560e a13c 735e 113d e0d2 45bb 47e0 d1bc
000002c0: 9348 143d d85d 0dbd 2d53 113d 0aa9 a23c
000002d0: 2abe d5bc 5858 f6bc 78c3 f03b aab9 aa3c
000002e0: 2a10 1bbd dcd7 01bc 2a0a 913c e3fd 2b3d
000002f0: 39c6 43bd f4a7 80bc 4bbd 9fbc 4c59 743c
00000300: 56c5 8e3c cd32 23bd 5e54 fb3c 054a bcbc
00000310: f5f5 f9bc 06be d23c 3009 40bd ab50 413d
00000320: ae81 ff3c d6a8 1abd d94d a0bc a202 f73c
00000330: c43e 95bc 7fa0 43bd 8c06 713c 4ce3 34bc
00000340: f462 093c 0c0e 3b3c bea9 d83c b389 213d
00000350: bec0 d23c f921 acbc 9277 ab3c b7e0 2c3d
00000360: dabd a73c e87a b7bb e265 ad3c 78cd aabb
00000370: f2ee 43bd 78b5 43bc 170f b7bc c41b 19bd
00000380: da0a e6bc 1d7b 1f3d bce7 22bd 1d8a 11bd
00000390: 0412 16bd 9285 8d3c 1ea1 8dbc 2316 8cbc
000003a0: 3090 13bd d7a9 1b3d 8ee8 813c f72f 1c3d
000003b0: 1464 28bd 4747 0b3d eaf7 c53c 174d 443d
000003c0: 1c33 08bd 8c8e 433c 43f1 253d 713d 073d
000003d0: 2c1c 713c ffa5 123d b047 8abc 5ac3 ee3c
000003e0: 40bf 923a b32c 383d 72a1 eebc f010 23bd
000003f0: 0028 ffb9 93e2 1f3d 988a edbc cb68 08bd
-0.0267193 -0.014095254 0.020377245 -0.026736774 0.02504355 -0.014500987 0.028224964 -0.00943489
0.020533193 -0.045466196 -0.0006194301 -0.014134344 0.023053486 0.017619986 0.0273333 -0.0034176372
0.0451059 0.0064440705 -0.03423398 0.023963373 -0.012030177 0.04069869 -0.0330749 0.023468155
-0.026464831 -0.0037898533 0.023147594 -0.00884727 0.023257513 0.024151605 0.025096614 -0.046710588
-0.010052297 0.017445844 0.03297532 -0.019481745 0.03872947 -0.026440661 -0.030843413 -0.01352771
0.038813297 -0.047127478 -0.033249006 0.011039104 -0.030445676 -0.040440623 -0.043279264 -0.0014463067
-0.044895917 -0.010415062 0.030662734 -0.022450455 -0.03079084 0.016929705 0.047124613 -0.035925776
0.02708264 -0.047617104 -0.0067679733 -0.03959306 -0.03973958 0.02266543 -0.03892689 0.004891537
-0.024379095 0.007857222 0.0050623454 0.0056055933 -0.020038152 -0.026076507 0.029642988 -0.026085261
0.01404082 -0.00058273226 -0.009678181 0.04523934 -0.0015027747 0.02483486 -0.006002929 0.026596006
0.04392731 0.045986798 -0.019860081 0.02824321 0.045567993 0.013194956 -0.016976057 0.03863288
-0.0005127862 -0.029356282 0.01596896 -0.029644683 -0.033910714 -0.036557328 0.008633219 0.03613658
0.039531928 0.006989997 0.04194517 0.046407778 -0.0010896474 -0.021116547 -0.03487226 -0.04788084
0.041027073 0.0039486624 -0.038323343 0.010270257 0.036398765 -0.04688168 -0.025754014 -0.02519377
0.029676836 -0.016651396 0.02556574 0.020959709 -0.04708148 -0.03507455 -0.03516715 -0.042137995
0.023076702 0.022279296 0.03134739 -0.014576826 0.0012102798 -0.020814678 -0.03817664 -0.042441193
-0.016763728 0.033502866 -0.025485648 0.01751827 0.02788021 -0.017691433 -0.043589823 -0.04411642
-0.03541995 -0.023565274 -0.0323444 0.0023824088 -0.027859023 0.019476946 -0.018778393 0.027443875
0.027332615 -0.012525056 0.009725776 0.031414952 0.0026439987 -0.013973191 -0.041269276 0.0020710975
0.0010099299 -0.0026525706 0.028961781 0.036927518 -0.034417234 0.022421282 -0.012675192 -0.029703649
0.047434527 -0.0015260763 -0.028922139 -0.033504043 0.010239109 0.028613094 -0.014613647 -0.04170964
-0.032906897 -0.023942837 0.027770277 -0.035490435 0.019660156 0.035490464 -0.0030185506 -0.02561964
0.036202025 -0.034513324 0.035479713 0.019855995 -0.026091654 -0.030071422 0.0073475204 0.020840485
-0.037857212 -0.007925 0.017705042 0.041990172 -0.04779646 -0.015705086 -0.019499442 0.014913868
0.017428081 -0.03984337 0.030679878 -0.022984514 -0.03051279 0.025725376 -0.046883762 0.04719607
0.031189766 -0.03775867 -0.01956837 0.030152623 -0.018218406 -0.047760483 0.014711034 -0.01104052
0.008385409 0.011416923 0.026448127 0.03943796 0.025726672 -0.021012293 0.020931039 0.042206492
0.02047627 -0.0055993684 0.021166746 -0.005212482 -0.047835298 -0.011945121 -0.022346063 -0.037379995
-0.028081346 0.03893577 -0.03977178 -0.035532106 -0.036638275 0.017275605 -0.01728874 -0.0171004
-0.03602618 0.03800377 0.015857961 0.03813168 -0.041111067 0.034003522 0.024166066 0.04792508
-0.033251867 0.011935841 0.04051329 0.03301758 0.014716189 0.035802837 -0.016879886 0.029145885
0.0011195913 0.044964503 -0.029129717 -0.039811075 -0.00048667192 0.039034437 -0.02899675 -0.033303063

bias f4 [21]
00000000: f427 afbc b88d 87bc 381f d3bb d099 673c
00000010: 20bf 20bd fec6 33bd b0f1 3fbd a4de 10bd
00000020: e058 56bb 207c 14bc a5e3 0c3d 10ec 88bb
00000030: e017 31bc a4e5 2b3c 56e2 913c d004 20bb
00000040: 009c 3fba 6a86 ba3c ba52 c93c 554d 443d
00000050: 76a4 b23c
-0.021381356 -0.016547069 -0.0064429305 0.014135793 -0.03924477 -0.043890946 -0.04686135 -0.035368577
-0.0032706782 -0.009062797 0.034396786 -0.0041785315 -0.010808915 0.010491762 0.01780812 -0.002441693
-0.00073093176 0.022769172 0.02457558 0.047925312 0.021806937
